morse_model.tflite (tflite, 19832 bytes, 8 tensors)

sequential/dense_3/MatMul f4 [5, 32]
000000 47 f2 16 be 06 a2 96 be 52 01 d5 3e ec 4d 48 be
       -0.14740859 -0.2942049 0.4160257 -0.19560975
000010 4e 5b aa bd 2c c9 b2 3e 97 c9 6a 3e 01 74 0c 3e
       -0.08318196 0.34919107 0.22928463 0.13716127
000020 28 ad 76 3e b0 a9 e9 be 26 31 35 be f3 20 c3 3e
       0.24089491 -0.45637274 -0.1769453 0.38111076
000030 b8 06 9f 3e 6d 50 cd be d1 b9 c4 be 75 dc 2a be
       0.31059813 -0.40100423 -0.38423017 -0.1668566
000040 78 a9 ed 3e 74 25 38 be 27 5e ce 3e e7 f9 a8 3c
       0.46418357 -0.17983037 0.40306208 0.020626975
000050 ee ea 4c be 67 58 29 bc d9 84 3b be b3 11 57 bd
       -0.20011494 -0.010336018 -0.18312396 -0.052507114
000060 11 bd c1 bd 25 c5 7d 3e 3e 77 7d be 0e cf d0 be
       -0.0945989 0.24782236 -0.24752519 -0.4078297
000070 42 e2 c2 3d f1 d3 dc be 87 4b 85 be c6 1c 75 3e
       0.095158115 -0.43130448 -0.26034185 0.23936757
000080 be 61 d9 3e 5b af ff 3e 90 f0 3f be 57 a2 cb 3e
       0.42457384 0.49938473 -0.18744111 0.39772293
000090 3d dc fe bd 39 a9 51 3e 54 60 f9 3d d2 b4 ba 3e
       -0.12444351 0.2047471 0.12176576 0.3646608
0000a0 bd c8 e1 be 12 aa 83 3e 2e 42 9a 3d 62 5f 30 bd
       -0.44098464 0.2571569 0.07532154 -0.043059714
0000b0 34 a7 50 3e 5b 32 ca be 97 fd 30 be 06 c6 e5 be
       0.20376283 -0.39491543 -0.17284237 -0.44877642
0000c0 18 e7 01 be 21 cc fb 3e 35 e6 f7 be e0 97 27 3e
       -0.12685812 0.49179175 -0.48417822 0.1636653
0000d0 33 9f 51 3e 36 2b 89 3e 47 05 58 be 02 58 c1 be
       0.20470886 0.2679078 -0.21095763 -0.37762457
0000e0 48 b0 bf 3d 48 ec e8 bd 9e 36 b7 3e 12 da 46 3e
       0.09359795 -0.11373192 0.35783857 0.19419125
0000f0 e1 63 7e 3e d3 44 eb 3b 0d 38 ec 3e b8 ad 9e 3e
       0.24842788 0.0071798353 0.46136513 0.30991912
000100 17 b5 f9 be 9a 53 8b 3e 94 e2 bf 3c e7 7e 21 3e
       -0.48770973 0.2721222 0.02342347 0.15771066
000110 f9 ea e1 3e 7e f2 9f be 54 9a ea 3e 32 80 b7 3c
       0.44124582 -0.31239694 0.45820868 0.022399995
000120 17 7e 3e bc c4 25 f2 be 19 2c 7d 3e 71 6b ba bd
       -0.011626742 -0.47294438 0.24723853 -0.09102524
000130 a1 1a ca be a6 7b a0 3c 1f 17 12 be 26 28 ea be
       -0.3947344 0.01959021 -0.14266632 -0.45733756
000140 db 7e 9f be 93 17 00 be 79 a3 c5 3e 5d 44 20 3e
       -0.3115147 -0.12508993 0.38601282 0.15651079
000150 a2 42 c7 be dc fb 14 3d 16 9d 94 be a3 80 0a 3e
       -0.38918024 0.036373004 -0.29026097 0.13525634
000160 95 bb 8a 3e 7a f2 b4 be 8a 19 41 3e aa 10 df 3e
       0.2709624 -0.35341245 0.18857399 0.435674
000170 ab 66 4c 3d 8f 5a 2a 3e 26 f7 30 be 37 9d 4e 3c
       0.0499026 0.16636108 -0.1728178 0.012610725
000180 30 46 1a 3e 85 c7 c8 be cc 67 70 be 4b 0a c0 3e
       0.15065837 -0.3921472 -0.23477095 0.37507853
000190 51 0b 8d 3d c0 98 de be f3 b4 c1 be dc a2 7c 3d
       0.06886924 -0.43475914 -0.37833366 0.061678752
0001a0 12 87 ce 3e 66 87 86 3e 50 4d 80 3d 91 2b b3 3e
       0.40337425 0.26275176 0.06264746 0.34994176
0001b0 32 2f 4b 3e b4 ce 04 bf e5 c1 3d be f7 d7 c4 3e
       0.19842222 -0.51877904 -0.18530996 0.38446018
0001c0 4d 49 3a bd 04 dd bf be f7 88 81 3e b0 4e f4 be
       -0.04548006 -0.3747331 0.25299808 -0.47716284
0001d0 6a ff 59 3e 6e 7c 29 3c 25 08 85 3d 33 66 64 be
       0.21288839 0.010344608 0.06495694 -0.22304611
0001e0 b8 4a 9b 3e 2d 08 f3 be f0 aa 2f 3e 2b f3 ad be
       0.30330443 -0.47467175 0.17155051 -0.33974585
0001f0 4c d8 1a be ce 5c a5 be 91 2c 5d be ac 8f 55 3e
       -0.15121573 -0.32297367 -0.21599032 0.20855588
000200 3c 38 11 be b9 6a 94 be 6b 97 af 3e 13 12 a9 be
       -0.14181608 -0.28987673 0.3429521 -0.33021602
000210 00 27 81 bb b1 25 de 3e 06 c2 3d bd 6d ef c7 3d
       -0.0039414167 0.4338813 -0.046327613 0.09762464
000220 fc c3 e6 be 72 3a 0c 3e 24 54 ae be f3 27 82 3e
       -0.450714 0.1369417 -0.3404857 0.25421104
000230 58 58 c0 be e6 25 42 3e 84 46 c0 3e 84 3c 5c be
       -0.375674 0.1895977 0.375538 -0.2150746
000240 42 64 1f be 87 8d e5 3e e4 67 98 be ac 1a 45 be
       -0.15565589 0.4483454 -0.29766762 -0.19248456
000250 a8 61 80 3e 9e 60 af be 00 dc b6 3e 9d c1 b4 3e
       0.25074506 -0.342534 0.35714722 0.35303965
000260 d7 4b 82 be 63 83 9e 3e 26 19 80 3e f2 59 6b be
       -0.25448486 0.30959615 0.25019187 -0.2298353
000270 72 fd 54 be 97 55 cd 3e 46 f6 62 be 25 4d bd 3c
       -0.20799807 0.40104362 -0.22164258 0.023108074

sequential/dense_1/BiasAdd/ReadVariableOp f4 [64]
000000 c0 e3 b1 3c 3a 57 f5 bb 62 61 44 bb 0e 4c d8 3c
       0.021715045 -0.007487205 -0.0029965271 0.026403453
000010 cb 52 06 3c 79 ac f3 bb c1 4f 1d 3d 3a b1 2e 3d
       0.00819845 -0.007436332 0.038406137 0.042649485
000020 c9 b5 c2 3c 11 ba 5e 3d 9a 26 02 bc 70 50 5c 3c
       0.023768323 0.054376666 -0.007943774 0.013446912
000030 88 c1 32 3d c6 4e 61 3d 6c 39 49 3d 3f d9 7a 3c
       0.043641597 0.055006765 0.049127027 0.015310585
000040 e8 a0 94 3c 0a 14 8e 3b 8b 17 cf 3c 7a 86 1a 3d
       0.018143132 0.004335885 0.02527978 0.037725903
000050 a6 67 98 3c 8a 96 8e bc c5 cb ee bb 19 e0 a7 3b
       0.01860411 -0.017405767 -0.007287475 0.00512315
000060 35 1d 18 3b d0 a4 75 3d 8d 84 86 3b 62 b5 bc 3c
       0.0023210768 0.05997163 0.0041051568 0.023035709
000070 df 76 c9 bb 75 4d 72 bc a7 4f bc 3c ab c8 d7 3b
       -0.0061482037 -0.014788975 0.0229872 0.006585201
000080 f1 18 e2 3c 98 fd 8a 3c b7 4d 7d 3c 07 98 02 3c
       0.027599784 0.016966626 0.015460423 0.007970816
000090 12 69 de 3b 1b 00 81 3d ee f9 ae 3b 08 25 86 3d
       0.0067874277 0.06298848 0.0053398525 0.06550032
0000a0 83 71 d3 3c d6 2b 7a bc 8c 35 e8 3b 59 ce 1e 3c
       0.025810963 -0.01526924 0.0070864614 0.009692752
0000b0 04 aa 05 3d ac e7 26 3c e1 08 08 3d c4 21 11 3c
       0.032632843 0.010187071 0.033211593 0.008858148
0000c0 22 32 01 3d 96 9a 5a 3c 09 3e c0 bb 6e 80 dd 3b
       0.03154195 0.01334252 -0.00586677 0.006759695
0000d0 6e 76 a9 3c 26 c8 f2 3c 62 7a b6 3c 2d c2 48 39
       0.020686354 0.029636454 0.022275154 0.00019145822
0000e0 5a 50 ce 3c 45 07 02 3d 48 ec 43 3d 05 58 14 bc
       0.025184799 0.031745214 0.047832757 -0.009054189
0000f0 b3 43 74 3c 68 38 4c 3d ec b0 ee 3c 22 e5 f5 3c
       0.014908719 0.04985848 0.029137097 0.030016486

sequential/dense_2/BiasAdd/ReadVariableOp f4 [32]
000000 47 21 df 3c 0b cb a2 3c f9 9f 7f ba 9b 8e 5d 3d
       0.027237548 0.019872209 -0.0009751316 0.054091077
000010 12 a2 5a 3d 0b 5e 90 bc c3 9f 04 bc 3e af 86 3c
       0.05337722 -0.017622968 -0.008094731 0.016440984
000020 a0 2b 21 3d b6 95 b5 3d 75 72 3b 3d 33 0e 86 3d
       0.039348245 0.08866446 0.04576345 0.06545677
000030 2e 93 01 3d 7d 78 1b 3d 0c a6 9f bc c2 dc 2b 3d
       0.031634502 0.037956703 -0.019488357 0.041958578
000040 ff 9d 26 ba 54 47 93 bc c0 35 52 3d cd 2e 98 3b
       -0.0006355941 -0.017978348 0.05132079 0.004644251
000050 c5 03 cb 3d 0c 5d 11 3d dc 6b f7 3c 51 0f 52 3d
       0.09912828 0.035489127 0.030202799 0.051284138
000060 0e 0e f2 3c 1b 47 90 bc 7e b0 48 bc b9 53 6b 3d
       0.029547717 -0.01761203 -0.01224911 0.05745289
000070 12 39 bf bb a0 12 9a 3d 35 78 d5 bb c4 1d 4f bd
       -0.0058356607 0.07523084 -0.006514574 -0.050565496

sequential/dense_3/BiasAdd/ReadVariableOp f4 [5]
000000 66 9d d9 bc 3d c9 0c bd 81 c9 98 3c 18 3e 5b 3d
       -0.026564311 -0.034371603 0.018650772 0.053526014
000010 65 c6 f9 bc
       -0.03049011

sequential/dense/BiasAdd/ReadVariableOp f4 [128]
000000 3b 48 45 bb d4 4f ee 3c 00 00 00 00 69 f3 52 3b
       -0.0030102867 0.0290908 0.0 0.003218854
000010 bc 9b 88 3c 27 71 d9 3a 2e b3 28 3c 75 43 32 3d
       0.016675822 0.0016589508 0.010296626 0.043521363
000020 f6 53 c6 bb 00 00 00 00 00 00 00 00 c7 69 65 bb
       -0.0060524894 0.0 0.0 -0.0035005675
000030 86 6b 20 3b ad af 20 3c 8b 0c d9 3c 47 56 b3 3c
       0.0024478151 0.009807509 0.026495239 0.021891726
000040 54 6c 92 bb a0 f8 3d 3c d7 d9 e8 3c 84 0c 0a 3d
       -0.00446848 0.011594921 0.028424187 0.033703342
000050 4c 15 b5 3c b3 6a b4 bc 60 47 fb 3c 00 00 00 00
       0.022104882 -0.022023534 0.030673683 0.0
000060 89 50 9c 3c 57 b6 9c 3c 4d 76 92 bb 7b dc 4a ba
       0.01908137 0.019129915 -0.004469669 -0.00077385426
000070 9e 52 3a 3b 94 d8 ed bb 86 fa 2d 3d 3a 09 95 bb
       0.0028430591 -0.007258484 0.042475246 -0.004548219
000080 00 00 00 00 5e 02 a8 3c 14 27 0a bc 00 00 00 00
       0.0 0.020508941 -0.0084321685 0.0
000090 31 64 65 bc 9e dd f8 bb 51 a0 04 3b 1f 7c 07 3c
       -0.014000938 -0.007594778 0.0020237158 0.008269339
0000a0 d3 24 92 bc cb d1 09 3d 9d c7 b8 3b 7e c2 17 3d
       -0.017839825 0.03364734 0.00563903 0.037050717
0000b0 1d a3 c4 bb 00 00 00 00 1e f3 02 3d 00 00 00 00
       -0.00600089 0.0 0.031970136 0.0
0000c0 65 bd 82 bc 84 04 08 3c f8 92 8f bc a0 38 92 3a
       -0.015959451 0.008301858 -0.017526135 0.0011155792
0000d0 00 00 00 00 00 00 00 00 00 00 00 00 00 00 00 00
       0.0 0.0 0.0 0.0
0000e0 00 00 00 00 78 06 26 3d 91 4c 5d 3c dc bb 2e bc
       0.0 0.040533513 0.013507024 -0.010664906
0000f0 aa 70 a8 bc 00 00 00 00 3b c2 30 3d 00 00 00 00
       -0.020561535 0.0 0.043153983 0.0
000100 6e 29 58 bc a6 73 d0 ba ff e6 38 3c 41 47 3f 3d
       -0.013193471 -0.0015903607 0.0112855425 0.046698812
000110 92 45 9c 3c 00 00 00 00 00 00 00 00 ae 54 84 bc
       0.019076142 0.0 0.0 -0.01615366
000120 aa 0c 63 bc 2f bd 68 3c 00 00 00 00 ba 51 e9 3b
       -0.013858 0.014205261 0.0 0.0071203383
000130 98 e7 f6 3c 00 00 00 00 00 00 00 00 1d 70 bd 3c
       0.03013973 0.0 0.0 0.023124749
000140 00 00 00 00 b8 77 e1 3c a4 cc 1d 3d 5e b8 6c bc
       0.0 0.027522907 0.03852524 -0.014448253
000150 a4 0c 13 3d 00 00 00 00 00 00 00 00 00 00 00 00
       0.035900727 0.0 0.0 0.0
000160 6f 22 c7 3c 3c a4 59 bc a4 47 3a 3d ee 41 fc bb
       0.024308411 -0.013283785 0.045478478 -0.007698289
000170 00 97 05 bb 1d c0 c6 3a 2d 8b 23 3d 15 e4 f1 3c
       -0.0020384192 0.0015163455 0.03992765 0.029527703
000180 32 fd 60 3d 7c 5f 2b 3d e0 9a a2 3c a5 5f 05 3d
       0.054928966 0.041839108 0.01984924 0.032561917
000190 9a 13 1a 3d c3 cd 38 bc 2c 4d 29 3c 00 00 00 00
       0.03761635 -0.011279526 0.010333341 0.0
0001a0 67 22 13 3d 11 be ae 3b 00 00 00 00 a8 46 e0 3c
       0.03592148 0.0053327163 0.0 0.027377442
0001b0 5b 79 a4 3c 02 c5 5e 3c b5 56 9f 3c 74 ca 01 bb
       0.020077398 0.013596775 0.019450525 -0.001980451
0001c0 d5 01 d4 bc d0 d9 33 3d a2 21 90 3c 08 e7 ab 3b
       -0.02587978 0.043908894 0.017594162 0.005246047
0001d0 d2 9d 2a 3b be 5d fa 3b 91 ac bf bc 00 00 00 00
       0.002603401 0.0076405695 -0.023397716 0.0
0001e0 00 00 00 00 0b 6d f5 ba 38 8c 42 3d 16 df f4 3c
       0.0 -0.0018724514 0.047497004 0.029891532
0001f0 00 00 00 00 ed 67 6b 3b 11 27 11 3d 52 79 7d 3c
       0.0 0.00359201 0.035437647 0.01547082

sequential/dense/MatMul i1 [128, 42] scale=0.0026406636 zero_point=0
000000 f6 0a a2 0b d5 2e 05 da fc 00 a2 f0 c9 16 10 de
       -0.026406636 0.026406636 -0.24822238 0.0290473 -0.11354854 0.121470526 0.013203318 -0.10034522 -0.010562655 0.0 -0.24822238 -0.04225062 -0.1452365 0.0580946 0.04225062 -0.089782566
000010 14 fa f9 c3 de e9 25 5e 0e 66 22 d2 08 d8 46 60
       0.052813273 -0.015843982 -0.018484645 -0.16108048 -0.089782566 -0.060735263 0.09770455 0.24822238 0.03696929 0.2693477 0.089782566 -0.121470526 0.02112531 -0.105626546 0.18484646 0.2535037
000020 e7 63 c5 20 e0 0a 2b 41 19 41 26 f9 46 b2 24 c4
       -0.06601659 0.2614257 -0.15579915 0.08450124 -0.08450124 0.026406636 0.11354854 0.17164314 0.06601659 0.17164314 0.10034522 -0.018484645 0.18484646 -0.20597176 0.095063895 -0.15843982
000030 4f de 16 fa 22 07 ef f7 c2 02 35 f0 ec 35 07 05
       0.20861243 -0.089782566 0.0580946 -0.015843982 0.089782566 0.018484645 -0.044891283 -0.023765974 -0.16372114 0.0052813273 0.13995518 -0.04225062 -0.052813273 0.13995518 0.018484645 0.013203318
000040 ec 46 a7 0d 2a 15 3f c6 d1 1d 05 38 db f8 20 4e
       -0.052813273 0.18484646 -0.23501906 0.03432863 0.110907875 0.055453938 0.16636181 -0.15315849 -0.12411119 0.07657924 0.013203318 0.14787716 -0.09770455 -0.02112531 0.08450124 0.20597176
000050 00 27 17 2d 3e f0 c7 cc d2 bb 1a dc e0 02 20 e4
       0.0 0.10298588 0.060735263 0.11882986 0.16372114 -0.04225062 -0.15051782 -0.13731451 -0.121470526 -0.1822058 0.06865726 -0.095063895 -0.08450124 0.0052813273 0.08450124 -0.07393858
000060 3b 37 ee c3 e2 0b 07 dc e5 13 2f 1b fc 03 fe 2f
       0.15579915 0.1452365 -0.047531947 -0.16108048 -0.07921991 0.0290473 0.018484645 -0.095063895 -0.07129792 0.05017261 0.12411119 0.07129792 -0.010562655 0.007921991 -0.0052813273 0.12411119
000070 14 35 45 d8 dd e9 f7 00 c4 fd 13 c2 fd 1e 48 23
       0.052813273 0.13995518 0.1822058 -0.105626546 -0.09242323 -0.060735263 -0.023765974 0.0 -0.15843982 -0.007921991 0.05017261 -0.16372114 -0.007921991 0.07921991 0.19012779 0.09242323
000080 29 c2 3a d2 d4 cd 2f cb 0a 28 44 39 48 3f 1c f2
       0.10826721 -0.16372114 0.15315849 -0.121470526 -0.1161892 -0.13467385 0.12411119 -0.13995518 0.026406636 0.105626546 0.17956513 0.15051782 0.19012779 0.16636181 0.07393858 -0.03696929
000090 2b 13 d1 19 17 3e 14 18 2a ff cb d8 ce 48 c9 1d
       0.11354854 0.05017261 -0.12411119 0.06601659 0.060735263 0.16372114 0.052813273 0.06337593 0.110907875 -0.0026406636 -0.13995518 -0.105626546 -0.13203318 0.19012779 -0.1452365 0.07657924
0000a0 08 19 f1 fa e3 41 fa 43 3c 16 27 cd 26 ca 38 d3
       0.02112531 0.06601659 -0.039609954 -0.015843982 -0.07657924 0.17164314 -0.015843982 0.17692447 0.15843982 0.0580946 0.10298588 -0.13467385 0.10034522 -0.14259584 0.14787716 -0.11882986
0000b0 5d 17 02 fa fb ce 51 d1 4c 37 20 11 ef 0f 4e b0
       0.24558172 0.060735263 0.0052813273 -0.015843982 -0.013203318 -0.13203318 0.21389376 -0.12411119 0.20069043 0.1452365 0.08450124 0.044891283 -0.044891283 0.039609954 0.20597176 -0.21125309
0000c0 c7 3b 29 1c e1 cf f3 11 39 b7 4f 40 26 30 b6 45
       -0.15051782 0.15579915 0.10826721 0.07393858 -0.08186057 -0.12939252 -0.03432863 0.044891283 0.15051782 -0.19276844 0.20861243 0.16900247 0.10034522 0.12675186 -0.1954091 0.1822058
0000d0 28 f3 30 05 0a 09 b6 1e 1b e8 bb 0b 17 b5 c3 0b
       0.105626546 -0.03432863 0.12675186 0.013203318 0.026406636 0.023765974 -0.1954091 0.07921991 0.07129792 -0.06337593 -0.1822058 0.0290473 0.060735263 -0.19804977 -0.16108048 0.0290473
0000e0 d3 4f 33 64 e8 d8 46 00 3f 46 f4 64 ea da de 20
       -0.11882986 0.20861243 0.13467385 0.26406637 -0.06337593 -0.105626546 0.18484646 0.0 0.16636181 0.18484646 -0.031687964 0.26406637 -0.0580946 -0.10034522 -0.089782566 0.08450124
0000f0 4a 49 ff 68 f8 07 c6 00 2a 02 08 dc cc 3c 29 0a
       0.1954091 0.19276844 -0.0026406636 0.27462903 -0.02112531 0.018484645 -0.15315849 0.0 0.110907875 0.0052813273 0.02112531 -0.095063895 -0.13731451 0.15843982 0.10826721 0.026406636

sequential/dense_1/MatMul i1 [64, 128] scale=0.002801472 zero_point=0
000000 3d eb f9 dd c5 43 09 da f7 ed cf 56 0e f3 0f 33
       0.1708898 -0.058830913 -0.019610304 -0.098051526 -0.16528685 0.18769863 0.025213249 -0.10645594 -0.025213249 -0.05322797 -0.13727213 0.2409266 0.03922061 -0.03641914 0.042022083 0.14287508
000010 e9 ec d8 f0 1b 4b ef f8 52 ef db 56 38 07 dd 12
       -0.06443386 -0.056029443 -0.112058885 -0.044823553 0.07563975 0.21011041 -0.047625024 -0.022411777 0.22972071 -0.047625024 -0.10365447 0.2409266 0.15688244 0.019610304 -0.098051526 0.050426498
000020 fb 11 c5 0d d9 ef 51 e6 e1 12 b1 1c 39 d4 ef 08
       -0.014007361 0.047625024 -0.16528685 0.03641914 -0.109257415 -0.047625024 0.22691923 -0.07283828 -0.08684564 0.050426498 -0.2213163 0.07844122 0.15968391 -0.123264775 -0.047625024 0.022411777
000030 00 41 e2 cd f0 ef 11 da e6 28 f3 f0 40 f4 d6 c1
       0.0 0.18209569 -0.084044166 -0.14287508 -0.044823553 -0.047625024 0.047625024 -0.10645594 -0.07283828 0.112058885 -0.03641914 -0.044823553 0.17929421 -0.033617664 -0.11766183 -0.17649274
000040 37 4d 35 e9 e7 df fc 3b 3f ee c4 0c c6 2a dd 69
       0.15408097 0.21571335 0.14847802 -0.06443386 -0.0700368 -0.09244858 -0.011205888 0.16528685 0.17649274 -0.050426498 -0.16808833 0.033617664 -0.16248538 0.11766183 -0.098051526 0.29415455
000050 2d cd 20 eb 3c f3 ba cc ed 58 c0 04 2f 17 0e cb
       0.12606624 -0.14287508 0.08964711 -0.058830913 0.16808833 -0.03641914 -0.19610305 -0.14567655 -0.05322797 0.24652955 -0.17929421 0.011205888 0.1316692 0.06443386 0.03922061 -0.14847802
000060 e0 b0 c6 27 96 0b 38 19 38 e7 e2 e5 5c 0e 45 d4
       -0.08964711 -0.22411777 -0.16248538 0.109257415 -0.29695603 0.030816194 0.15688244 0.0700368 0.15688244 -0.0700368 -0.084044166 -0.07563975 0.25773543 0.03922061 0.19330157 -0.123264775
000070 f0 a4 36 48 f0 28 f5 23 d5 1d a7 0a dc f3 33 dd
       -0.044823553 -0.25773543 0.1512795 0.20170599 -0.044823553 0.112058885 -0.030816194 0.098051526 -0.1204633 0.08124269 -0.24933101 0.028014721 -0.100852996 -0.03641914 0.14287508 -0.098051526
000080 dc b7 14 45 09 34 0d 36 2e e7 38 d2 07 f0 31 d6
       -0.100852996 -0.20450746 0.056029443 0.19330157 0.025213249 0.14567655 0.03641914 0.1512795 0.12886772 -0.0700368 0.15688244 -0.12886772 0.019610304 -0.044823553 0.13727213 -0.11766183
000090 33 c4 f3 cf 49 ce 2c df 17 d0 2f 4e 0b c1 f1 36
       0.14287508 -0.16808833 -0.03641914 -0.13727213 0.20450746 -0.1400736 0.123264775 -0.09244858 0.06443386 -0.13447066 0.1316692 0.21851483 0.030816194 -0.17649274 -0.042022083 0.1512795
0000a0 c7 13 1c c3 1d 17 fc 45 e8 23 c1 3c f0 2d df bc
       -0.15968391 0.05322797 0.07844122 -0.1708898 0.08124269 0.06443386 -0.011205888 0.19330157 -0.06723533 0.098051526 -0.17649274 0.16808833 -0.044823553 0.12606624 -0.09244858 -0.1905001
0000b0 eb 23 2f 3f d8 2d bd 25 cb 0e 21 0d 16 19 c1 16
       -0.058830913 0.098051526 0.1316692 0.17649274 -0.112058885 0.12606624 -0.18769863 0.10365447 -0.14847802 0.03922061 0.09244858 0.03641914 0.061632387 0.0700368 -0.17649274 0.061632387
0000c0 18 4a 13 ec 0e f2 29 e0 ce fd da 14 34 1a cb c3
       0.06723533 0.20730893 0.05322797 -0.056029443 0.03922061 -0.03922061 0.114860356 -0.08964711 -0.1400736 -0.008404416 -0.10645594 0.056029443 0.14567655 0.07283828 -0.14847802 -0.1708898
0000d0 0c 55 1d 2a fa c1 31 ec ad 44 d3 16 67 48 cf e5
       0.033617664 0.23812513 0.08124269 0.11766183 -0.016808832 -0.17649274 0.13727213 -0.056029443 -0.23252219 0.1905001 -0.12606624 0.061632387 0.28855163 0.20170599 -0.13727213 -0.07563975
0000e0 ca 4b 3a c3 df 3b ec 0c f4 0b fd 36 3c b1 e2 de
       -0.1512795 0.21011041 0.16248538 -0.1708898 -0.09244858 0.16528685 -0.056029443 0.033617664 -0.033617664 0.030816194 -0.008404416 0.1512795 0.16808833 -0.2213163 -0.084044166 -0.09525005
0000f0 02 e4 0e 46 1e f7 1e d8 be 2d d3 09 46 30 33 b4
       0.005602944 -0.07844122 0.03922061 0.19610305 0.084044166 -0.025213249 0.084044166 -0.112058885 -0.18489715 0.12606624 -0.12606624 0.025213249 0.19610305 0.13447066 0.14287508 -0.21291187

sequential/dense_2/MatMul i1 [32, 64] scale=0.0031978274 zero_point=0
000000 a1 bd c2 48 40 b0 da cd fc 3b be c7 02 47 ca 31
       -0.3037936 -0.21425444 -0.1982653 0.23024356 0.20466095 -0.25582618 -0.12151744 -0.1630892 -0.0127913095 0.18867181 -0.2110566 -0.18227616 0.0063956548 0.22704574 -0.17268267 0.15669355
000010 3b ff be 15 4b c0 fa 28 49 18 04 47 02 2e 22 cc
       0.18867181 -0.0031978274 -0.2110566 0.06715438 0.23983705 -0.20466095 -0.019186964 0.12791309 0.2334414 0.07674786 0.0127913095 0.22704574 0.0063956548 0.14710006 0.10872613 -0.16628702
000020 4a 42 1a 3a e5 0c d9 3e ba e8 46 54 21 34 b2 07
       0.23663923 0.2110566 0.08314351 0.185474 -0.08634134 0.03837393 -0.12471527 0.1982653 -0.22384791 -0.07674786 0.22384791 0.2686175 0.1055283 0.16628702 -0.24943054 0.022384793
000030 07 51 01 e1 49 42 31 38 04 c4 17 11 e6 53 a7 46
       0.022384793 0.25902402 0.0031978274 -0.09913265 0.2334414 0.2110566 0.15669355 0.17907834 0.0127913095 -0.19186965 0.07355003 0.054363064 -0.08314351 0.26541966 -0.28460664 0.22384791
000040 c9 9f 9a e8 53 eb f6 e3 1c 14 59 e7 1d da cb ac
       -0.1758805 -0.31018925 -0.3261784 -0.07674786 0.26541966 -0.06715438 -0.031978272 -0.092737 0.08953917 0.063956544 0.28460664 -0.07994568 0.092737 -0.12151744 -0.16948485 -0.2686175
000050 15 de c3 02 f5 eb c0 d9 17 04 f8 e0 2b 32 e0 2a
       0.06715438 -0.10872613 -0.19506747 0.0063956548 -0.035176102 -0.06715438 -0.20466095 -0.12471527 0.07355003 0.0127913095 -0.025582619 -0.102330476 0.13750657 0.15989137 -0.102330476 0.13430876
000060 47 40 c4 49 21 31 63 29 d4 e0 bb dd 49 2a 07 03
       0.22704574 0.20466095 -0.19186965 0.2334414 0.1055283 0.15669355 0.31658491 0.13111092 -0.14070441 -0.102330476 -0.22065009 -0.111923955 0.2334414 0.13430876 0.022384793 0.009593482
000070 37 4f d1 22 1e e6 27 02 02 46 f9 d5 c7 db 51 dc
       0.1758805 0.25262836 -0.15029788 0.10872613 0.09593482 -0.08314351 0.12471527 0.0063956548 0.0063956548 0.22384791 -0.022384793 -0.13750657 -0.18227616 -0.118319616 0.25902402 -0.11512178
000080 4d e3 68 cc d9 eb 46 b0 b3 d8 d6 60 4b cc 97 ca
       0.2462327 -0.092737 0.33257404 -0.16628702 -0.12471527 -0.06715438 0.22384791 -0.25582618 -0.2462327 -0.12791309 -0.13430876 0.30699143 0.23983705 -0.16628702 -0.3357719 -0.17268267
000090 49 29 de 1e 11 c8 3d 04 bd ba fb 29 fd e1 cc 37
       0.2334414 0.13111092 -0.10872613 0.09593482 0.054363064 -0.17907834 0.19506747 0.0127913095 -0.21425444 -0.22384791 -0.015989136 0.13111092 -0.009593482 -0.09913265 -0.16628702 0.1758805
0000a0 f7 ce e4 9d 43 bc e0 b7 ef 48 c3 ca 37 ff 0d b8
       -0.028780445 -0.15989137 -0.08953917 -0.31658491 0.21425444 -0.21745226 -0.102330476 -0.2334414 -0.054363064 0.23024356 -0.19506747 -0.17268267 0.1758805 -0.0031978274 0.041571755 -0.23024356
0000b0 6d f9 43 be ba fb ce 0e 31 0e d3 cc 05 13 38 28
       0.3485632 -0.022384793 0.21425444 -0.2110566 -0.22384791 -0.015989136 -0.15989137 0.044769585 0.15669355 0.044769585 -0.14390223 -0.16628702 0.015989136 0.06075872 0.17907834 0.12791309
0000c0 f7 e5 c8 f4 4f eb 65 5a ea 0e c9 d9 3b 60 6f 14
       -0.028780445 -0.08634134 -0.17907834 -0.03837393 0.25262836 -0.06715438 0.32298055 0.28780445 -0.070352204 0.044769585 -0.1758805 -0.12471527 0.18867181 0.30699143 0.35495883 0.063956544
0000d0 f2 e8 be 4d cb ea 1b f1 c0 2e fe 29 fa cf e6 2b
       -0.044769585 -0.07674786 -0.2110566 0.2462327 -0.16948485 -0.070352204 0.08634134 -0.04796741 -0.20466095 0.14710006 -0.0063956548 0.13111092 -0.019186964 -0.15669355 -0.08314351 0.13750657
0000e0 2c e3 ce eb b9 1d 53 3c c6 b5 b3 0b 04 e0 dc e3
       0.14070441 -0.092737 -0.15989137 -0.06715438 -0.22704574 0.092737 0.26541966 0.19186965 -0.185474 -0.23983705 -0.2462327 0.035176102 0.0127913095 -0.102330476 -0.11512178 -0.092737
0000f0 ec 38 09 31 1e 0c 35 d3 3f 22 1b f0 af 54 11 e8
       -0.063956544 0.17907834 0.028780445 0.15669355 0.09593482 0.03837393 0.16948485 -0.14390223 0.20146312 0.10872613 0.08634134 -0.051165238 -0.25902402 0.2686175 0.054363064 -0.07674786
